yield/tut2-model.pt (torch_old, 1483 bytes, 6 tensors)

fc_1.weight f4 [6, 9]
0	0xbe9a01d8	-0.30079532
1	0xbf07501e	-0.52856624
2	0x3e987199	0.29774168
3	0x3cc684a3	0.024233168
4	0x3f19172d	0.5980099
5	0xbeeeadb4	-0.466169
6	0x3f03e24d	0.5151718
7	0x3f4a32b3	0.7898361
8	0xbf129443	-0.5725748
9	0xbe790954	-0.24319965
10	0x3cc0c6c3	0.023532277
11	0xbea1e374	-0.31618845
12	0xbe30312d	-0.17206259
13	0x3e77d234	0.2420128
14	0x3e44cf6a	0.19219747
15	0x3e829259	0.2550228
16	0xbea32b5a	-0.31869012
17	0xbea0815c	-0.31348693
18	0x3f5a4bf9	0.85272175
19	0x3f324770	0.69640255
20	0x3d01bff7	0.031677213
21	0x3ee9b678	0.45647025
22	0x3e43b17f	0.19110678
23	0xbfbb8945	-1.4651266
24	0x3e3b92f7	0.18317781
25	0xbf7505cd	-0.95711976
26	0x3f8c1208	1.0943003
27	0xbf1b0802	-0.60559094
28	0x3f47937a	0.77959406
29	0x3ccc7bff	0.02496147
30	0x3ee8bad7	0.45455047
31	0x3f0d007c	0.55078864
32	0x4030e532	2.763989
33	0xbbfaa069	-0.007648517
34	0x3fe71236	1.8052433
35	0xbf345eac	-0.7045696
36	0xbf0e6bbc	-0.5563314
37	0xc001ed89	-2.030123
38	0x3eed211c	0.46314323
39	0x3f523b02	0.8212129
40	0x3f0d4d72	0.551963
41	0xbecbcf4a	-0.39806587
42	0xbea6fb4b	-0.32613596
43	0x3ed33497	0.4125106
44	0x3ec6e629	0.38847473
45	0xbf80bc11	-1.0057393
46	0x3ffcd80e	1.9753435
47	0xbe416cc2	-0.18889144
48	0x3d197858	0.037468284
49	0xbeacab02	-0.3372422
50	0x3fce2979	1.6106406
51	0xbed77647	-0.42082426
52	0xbe651dcb	-0.22374646
53	0x3e5d70b5	0.21625026

fc_1.bias f4 [6]
0	0x3e1ac1be	0.1511297
1	0xbe95018f	-0.29102752
2	0x3b8ee1ac	0.0043603983
3	0x3f083760	0.53209496
4	0xbde03826	-0.109482095
5	0x3dc235e8	0.09482938

fc_2.weight f4 [3, 6]
0	0xbf861999	-1.0476562
1	0xbe2583d8	-0.16163576
2	0x3e2815a7	0.1641451
3	0x3f1defe9	0.616942
4	0xbff5a568	-1.9191103
5	0x40144bb1	2.3171198
6	0xbe2584e8	-0.16163981
7	0x3c9c5910	0.019085437
8	0xbdac5eac	-0.08416495
9	0x3c294fc0	0.010333955
10	0x3eaa8964	0.33307946
11	0xbe291762	-0.16512826
12	0x3f2cdb5b	0.6752221
13	0xbb9d1ff2	-0.004795068
14	0xbfa465ae	-1.284353
15	0x3fc6104e	1.5473726
16	0x3f57286b	0.8404605
17	0xbe084b1b	-0.133099

fc_2.bias f4 [3]
0	0x3f07a928	0.52992487
1	0xbec2314c	-0.37928236
2	0x3f157d18	0.58394

fc_3.weight f4 [5, 3]
0	0x3f022a49	0.5084577
1	0x3e9a1060	0.30090618
2	0x3f001eec	0.50047183
3	0x3fc42716	1.5324428
4	0x3d188b30	0.037242115
5	0xc045adde	-3.088737
6	0xbedd365e	-0.4320554
7	0x3e9f36e8	0.31096578
8	0xbe85361c	-0.26017845
9	0xc0b59867	-5.674854
10	0xbe66aa44	-0.22525889
11	0x3f184ab3	0.5948898
12	0x3f0a8d7b	0.5412213
13	0x3e9d591a	0.30732042
14	0x3ea5c761	0.32378677

fc_3.bias f4 [5]
0	0xbf903c2e	-1.1268365
1	0xbf519447	-0.8186688
2	0x3f946b9e	1.1595342
3	0x3f4229fa	0.758453
4	0xbf3b8981	-0.7325669
